models/Model1.pth (torch, 631625 bytes, 67 tensors)

block1.0.weight f4 [8, 3, 3, 3]
0	0xbd868401	-0.065681465
1	0x3e04d21c	0.12970775
2	0xbf57b7c1	-0.8426476
3	0x3eccba76	0.39986008
4	0x3fcf1095	1.6176935
5	0x3f0d388b	0.551644
6	0x3e02f921	0.12790348
7	0xbe41b462	-0.18916467
8	0x3fd114df	1.6334494
9	0x3dbfb4e2	0.093606725
10	0xbe967d22	-0.29392344
11	0x3d0d4d88	0.034497768
12	0xbf52fe9e	-0.82419765
13	0xbf5454f2	-0.82942116
14	0xbf027770	-0.509635
15	0xbf4262a1	-0.75931746
16	0xc01b23db	-2.4240634
17	0x3ed4831d	0.41506281
18	0x3e2543de	0.1613917
19	0x3e7e286c	0.24820107
20	0x3d4d4544	0.050114885
21	0x3c2eac26	0.010661161
22	0x3e3fe341	0.18739034
23	0xbec76b74	-0.38949168
24	0x3f216368	0.63042307
25	0xbf1e2410	-0.61773777
26	0x3f3984a2	0.72468007
27	0xbc3b2efb	-0.011424775
28	0x3e1b9e3c	0.1519708
29	0x3f011a32	0.50430596
30	0x3efc1ef1	0.49242356
31	0x3f8c6c81	1.0970613
32	0x3f3edb09	0.7455297
33	0xbee26a4b	-0.4422172
34	0xbf6b034d	-0.9180191
35	0xbd93eda1	-0.072230585
36	0x3e0d5578	0.13802135
37	0xbf13cd3f	-0.57735056
38	0xbe1e6374	-0.15467626
39	0x3f4092ea	0.75224173
40	0x3e8c55ed	0.27409306
41	0x3bbe1ed8	0.0058020167
42	0xbe5a3bab	-0.21311824
43	0xbf96b4c5	-1.1773916
44	0xbc242a11	-0.010019795
45	0x3ee253f9	0.4420469
46	0xbf1a6aab	-0.6031901
47	0xbf70641b	-0.9390275
48	0x3fa0c52e	1.2560174
49	0x3efa3c52	0.48874146
50	0xbf3ee707	-0.7457127
51	0x3f508863	0.8145811
52	0xbec4f2dd	-0.3846654
53	0xbe616c5d	-0.22013994
54	0xbe8b719d	-0.27235118
55	0xbeaa8969	-0.3330796
56	0xbe28466c	-0.16433114
57	0x3d855527	0.06510382
58	0xbd7bda62	-0.061487563
59	0xbfab9c34	-1.3407044
60	0xbe921c88	-0.28537393
61	0x3ecbf1a9	0.3983281
62	0x3f94b5ee	1.161802
63	0xbd9eb18b	-0.077487074
64	0x3eafd41a	0.34341508
65	0x3e692ef1	0.22771813
66	0x3efbbe53	0.49168643
67	0x3f42e78b	0.76134557
68	0xbf409e83	-0.7524187
69	0xbe590b69	-0.21195759
70	0x3f56bdfb	0.8388364
71	0x3fbd7f7d	1.4804531
72	0x3e50cafb	0.20389931
73	0x3caa40c7	0.020782841
74	0x3e9c8794	0.30572188
75	0x3d85aca1	0.06527067
76	0xbf310320	-0.69145393
77	0xbfc448b6	-1.533469
78	0xbea1fd23	-0.3163844
79	0xbf73adfd	-0.9518736
80	0xbe38a2e8	-0.18030894
81	0xbf286973	-0.657859
82	0x3f82fd55	1.0233561
83	0xbe7d8f17	-0.24761616
84	0xbee96ecd	-0.45592347
85	0x3f976c0f	1.1829852
86	0xbd1d325f	-0.038378116
87	0x3d99ee46	0.0751615
88	0x3d17b6f8	0.037039727
89	0x3e700535	0.23439486
90	0xbf6af8fa	-0.9178616
91	0x3fc5cc46	1.5452964
92	0x3e2aa188	0.16663182
93	0xbf818e7f	-1.0121611
94	0x3f4ba5fa	0.79550135
95	0xbe37bf3c	-0.17944044
96	0x3e9fcb37	0.31209728
97	0xbf27ded6	-0.65574396
98	0x3e8f50c4	0.27991307
99	0xbe41cc82	-0.1892567
100	0x3fa4cfd4	1.2875924
101	0xbca04854	-0.019565739
102	0xbf234583	-0.6377794
103	0x3ebb3b83	0.3656884
104	0xbee49ddd	-0.4465169
105	0x3e8725de	0.26396078
106	0xbf5dd43f	-0.86651987
107	0xbe97e5eb	-0.296676
108	0xbeffdf60	-0.4997511
109	0xbde273fe	-0.1105728
110	0x3f21cf57	0.63207
111	0xbeacc3b8	-0.33743072
112	0xbec48736	-0.38384408
113	0x3e8e5944	0.2780248
114	0xbf5e7094	-0.8689053
115	0xbef1f9fd	-0.47261038
116	0x3df41d5c	0.11919662
117	0xbdd24fb3	-0.10269108
118	0xbec6ff0b	-0.38866457
119	0x3d48120f	0.048845347
120	0x3f125c25	0.5717185
121	0xbe288e97	-0.16460644
122	0xbe8bdf17	-0.27318642
123	0x3e804042	0.25049025
124	0x3e390164	0.18066937
125	0xbe849cd2	-0.25900894
126	0x3e347267	0.17621766
127	0xbeb23614	-0.34806883
128	0xbeac1e42	-0.33616835
129	0x3fba8c8b	1.457414
130	0x3ecbdabe	0.39815325
131	0xbe9f3a75	-0.31099287
132	0x3f9f8f8b	1.2465681
133	0x3f50a816	0.8150648
134	0xbe844965	-0.25837246
135	0x3ffab068	1.9585085
136	0xbfa75ea9	-1.3075763
137	0xbf068ef8	-0.52561903
138	0x3f2ae6ac	0.6675823
139	0xbf0ed1aa	-0.5578867
140	0xbea84100	-0.3286209
141	0xbd7f2a9e	-0.062296502
142	0xbe3a97d4	-0.1822198
143	0xbf849d24	-1.0360456
144	0x3f315c2f	0.69281286
145	0xc01f0d01	-2.4851687
146	0x3d27fd1b	0.041012865
147	0x3ebba845	0.36651817
148	0xbe9893c4	-0.29800236
149	0x3f7aefd1	0.9802218
150	0xbe073d90	-0.13207078
151	0x3ee65a22	0.4499064
152	0x3e82f88d	0.25580254
153	0x3e59f42e	0.21284553
154	0xbff2f3a0	-1.8980598
155	0xbe7337d3	-0.23751764
156	0x3eefeba6	0.46859473
157	0x3e0af819	0.13571204
158	0x3f6b4237	0.9189791
159	0xbe39b2c4	-0.181346
160	0x3f0020aa	0.5004984
161	0x3ead3cb3	0.33835372
162	0xbef52043	-0.47876176
163	0x3f9fcef2	1.248503
164	0xbdebda58	-0.11516255
165	0xbe75e65e	-0.2401366
166	0xbfc68a45	-1.5510947
167	0x3ed59d2c	0.41721475
168	0x3eb15753	0.34636936
169	0xbe6c3682	-0.23067668
170	0x3f1af958	0.6053672
171	0xbf1e1197	-0.6174559
172	0x3fe9bec7	1.8261346
173	0xbf2e5607	-0.6810002
174	0xbf33640b	-0.7007453
175	0xbfc22d3e	-1.5170057
176	0xbdda5a9d	-0.10661814
177	0xbecbd77b	-0.39812836
178	0xbed09a2f	-0.40742633
179	0x3c1470da	0.009060109
180	0x3af62b0f	0.0018781143
181	0x402c3982	2.69101
182	0xbf3f5960	-0.7474575
183	0x3ec13ffb	0.37744126
184	0x3e548ac9	0.20756067
185	0x3e2d10d4	0.1690095
186	0xbd0c2604	-0.034215942
187	0x3e9bdac3	0.3044034
188	0xbe4ae668	-0.19814456
189	0xbefe745c	-0.4969815
190	0xbfb9d34f	-1.4517611
191	0xbf63d75f	-0.89000505
192	0xbe2d2db6	-0.16911969
193	0xbe11f435	-0.14253314
194	0x3f99cc16	1.2015407
195	0x3f43e218	0.76516867
196	0x3f8099c7	1.0046929
197	0x3ebbafbc	0.36657512
198	0x3f63314a	0.88747084
199	0xbf0746a5	-0.5284217
200	0x3ed7ff27	0.42186853
201	0x3e84ae15	0.25914064
202	0xbe636264	-0.22205502
203	0x3fb2e85e	1.3977163
204	0x3ca62efb	0.020286074
205	0xbe69a9ca	-0.22818676
206	0xbf60c9c9	-0.878079
207	0x3f10375b	0.56334466
208	0xbea8240b	-0.3284
209	0xbba4f53b	-0.0050341166
210	0xbc8f3734	-0.017482378
211	0xbf1b5066	-0.60669553
212	0x3edbb02f	0.42907855
213	0xbd6f9c36	-0.058498584
214	0xbea8bd95	-0.3295714
215	0xbf43cb3c	-0.76481986

block1.2.weight f4 [8]
0	0x3f8572d1	1.0425664
1	0x3f652418	0.895082
2	0x3f88c0c7	1.0683831
3	0x3f98e676	1.1945331
4	0x3f40c855	0.7530568
5	0x3fac91ec	1.3482032
6	0x3fa638e8	1.2986116
7	0x3f64ef60	0.8942776

block1.2.bias f4 [8]
0	0xbe4ec5f9	-0.20192708
1	0xbf3ff811	-0.74987894
2	0xbe23e531	-0.16005398
3	0x3ed1e29d	0.40993205
4	0x3f88d642	1.0690386
5	0xbbddeb11	-0.006772407
6	0x3db6a2ce	0.08917771
7	0xbe586532	-0.21132353

block1.2.running_mean f4 [8]
0	0x3f54dbdb	0.8314797
1	0x3f28c04b	0.65918416
2	0x3f2e1099	0.67994076
3	0x3f30b4bf	0.69025797
4	0x3f2a97c8	0.6663785
5	0x3f9a2e91	1.2045461
6	0x3f3ced1f	0.7379932
7	0x3ee916f8	0.45525336

block1.2.running_var f4 [8]
0	0x3fb44ae8	1.408536
1	0x3fc3cc44	1.5296712
2	0x3f848d8b	1.0355695
3	0x3fd3cdd5	1.654719
4	0x3fb09911	1.3796712
5	0x4042e65d	3.0453103
6	0x3fcaa6f3	1.5832199
7	0x3f3ab966	0.72939146

block1.4.weight f4 [8, 8, 3, 3]
0	0x3c16e1e2	0.009209128
1	0xbe01b6ae	-0.12667343
2	0x3f7d8af7	0.9904017
3	0x3d99b0ca	0.07504423
4	0xbef76a3b	-0.48323235
5	0x3e8e3c6e	0.2778048
6	0xbe8ed9fa	-0.27900678
7	0xbe2704a5	-0.16310365
8	0x3e2b0670	0.16701674
9	0x3e76841a	0.2407383
10	0xbdf5bcfa	-0.11998935
11	0x3d56d3d0	0.052448094
12	0x3d384c0d	0.044994403
13	0xbeb96451	-0.36209348
14	0x3b8089fb	0.0039226986
15	0xbcbb797f	-0.022885082
16	0xbea98c89	-0.33115032
17	0xbdd7b8ee	-0.105333194
18	0x3e74fe72	0.23925188
19	0xbf17420d	-0.5908516
20	0xbf25040b	-0.64459294
21	0x3de62979	0.11238379
22	0xbc9adfe6	-0.018905591
23	0xbf21e35a	-0.63237536
24	0x3ed177bd	0.40911666
25	0x3e1f14ee	0.15535328
26	0x3ed63f7c	0.4184531
27	0x3d7a1151	0.06105167
28	0xbd53a941	-0.051675085
29	0x3e2dc45a	0.16969433
30	0x3d845f2a	0.064634636
31	0xbe485df1	-0.19567086
32	0xbe304273	-0.17212848
33	0x3c2c348f	0.010510578
34	0x3d386929	0.045022164
35	0xbebf9d13	-0.37424526
36	0xbc1e1926	-0.009649551
37	0x3e354585	0.17702301
38	0x3e608813	0.21926908
39	0xbe9882c7	-0.29787275
40	0xbdb749b3	-0.08949604
41	0xbda016bd	-0.07816837
42	0xbc1a5c64	-0.009421442
43	0xbdcce992	-0.100054875
44	0x3e79e413	0.2440341
45	0xbd13c800	-0.036079407
46	0xbe66ef96	-0.22552332
47	0x3d7fe7b1	0.062476818
48	0xbed8bcda	-0.42331582
49	0xbf4e8fe0	-0.80688286
50	0x3d432460	0.04764211
51	0xbd6ad5f7	-0.05733296
52	0x3ea1dce1	0.3161383
53	0x3fc82355	1.5635782
54	0xbe9b6071	-0.30347016
55	0x3c83de72	0.016097281
56	0xbecc0d50	-0.39853907
57	0xbe5f42a9	-0.21802773
58	0xbd693299	-0.05693302
59	0x3ed42b7d	0.4143943
60	0x3d9c6d69	0.07638056
61	0x3f35b6d2	0.70982087
62	0xbe8fcff9	-0.28088358
63	0x3de8b7e4	0.11363199
64	0x3d97fd48	0.074213564
65	0xbd5dcfd7	-0.05415329
66	0x3dd4a5ca	0.10383184
67	0xbef8c198	-0.485852
68	0xbe64ba3a	-0.22336665
69	0xbc26a842	-0.010171952
70	0xbe8b0d4a	-0.27158576
71	0x3db7d1de	0.08975576
72	0xbe58376a	-0.21114889
73	0xbe723aaf	-0.23655199
74	0xbcdb7859	-0.026790785
75	0xbfa37f19	-1.2773162
76	0xbf0f98b5	-0.5609239
77	0xbe5d17d9	-0.21591128
78	0xbebf9ee0	-0.374259
79	0xbda7e4d9	-0.08197946
80	0x3d8c45e8	0.06849271
81	0xbe3ad214	-0.18244201
82	0xbd9b978f	-0.07597267
83	0x3e67b943	0.22629265
84	0xbf38fe0d	-0.7226265
85	0xbf27ec8f	-0.65595335
86	0x3dae7771	0.085188754
87	0x3e26808e	0.16259977
88	0x3d26ebdb	0.040752273
89	0xbd661ce5	-0.0561799
90	0x3ecc93ef	0.39956614
91	0x3d6572fa	0.056017853
92	0xbe9cf090	-0.30652285
93	0x3f8e3f4f	1.111307
94	0x3ec4c8f5	0.38434568
95	0xbdc126b4	-0.0943121
96	0xbc81f2c9	-0.01586284
97	0xbe13a18d	-0.14417095
98	0xbeee01d1	-0.4648576
99	0x3dbe337d	0.09287164
100	0xbe483c19	-0.19554175
101	0xbe065147	-0.13116942
102	0xbe4488f9	-0.19192876
103	0x3ea6ed33	0.32602844
104	0x3e9d8b82	0.307705
105	0x3e6d5db5	0.23180278
106	0xbe9a5b1f	-0.30147645
107	0x3d36bf5f	0.0446161
108	0x3d3d67e6	0.046241663
109	0x3e343a93	0.1760047
110	0x3e4ec2c5	0.20191486
111	0x3da27331	0.07932127
112	0x3e13a597	0.14418636
113	0x3e466668	0.19375002
114	0xbde71a9a	-0.11284371
115	0xbe5f0b63	-0.21781687
116	0xbe959086	-0.29211825
117	0x3da23c0d	0.0792161
118	0x3eb0d1db	0.34535107
119	0x3edf2fae	0.43591064
120	0x3da7d861	0.08195568
121	0xbec8424f	-0.3911309
122	0xbe21b809	-0.1579286
123	0xbeb1b246	-0.34706324
124	0xbe1ee205	-0.15515907
125	0xbe4970bf	-0.19671915
126	0x3e65b516	0.2243236
127	0xbeda016d	-0.42579213
128	0xbdf1d5e4	-0.118083745
129	0xbd6f6e8b	-0.05845503
130	0x3e6d69fc	0.23184961
131	0x3ecf7ead	0.40526333
132	0xbf0ebda5	-0.55758125
133	0xbec250b1	-0.37952188
134	0xbebe585f	-0.37176797
135	0xbed34a8b	-0.4126781
136	0xbd4174de	-0.047230594
137	0xbe9b335b	-0.3031262
138	0x3eaf67e6	0.34258956
139	0x3ede623b	0.4343432
140	0xbe52b793	-0.2057784
141	0xbd5afc51	-0.053463284
142	0x3e5868fc	0.21133798
143	0xbf02c8f4	-0.5108788
144	0x3e154cc7	0.1458007
145	0x3d48073e	0.04883503
146	0xbf47e7fb	-0.7808835
147	0x3e407b30	0.18796992
148	0xbf24932b	-0.6428706
149	0xbe382770	-0.17983794
150	0x3ea0d105	0.3140947
151	0xbd8cf421	-0.068825014
152	0x3e0a2ba5	0.13493212
153	0x3e11b1c8	0.14227974
154	0x3ea90eee	0.33019203
155	0xbe5be302	-0.21473315
156	0xbea03eba	-0.31297857
157	0xbce4cff8	-0.027931198
158	0xbebb38b6	-0.36566705
159	0xbc4f2696	-0.012643477
160	0xbeb2a4c8	-0.34891343
161	0xbe9e7b94	-0.30953658
162	0xbeb23786	-0.34807986
163	0xbe2200c6	-0.15820608
164	0xbd8f02d2	-0.0698296
165	0xbeaad197	-0.3336303
166	0xbf3f4edc	-0.74729705
167	0xbd2a6817	-0.041603174
168	0x3c9d7cb3	0.0192245
169	0x3e989501	0.2980118
170	0xbe81093d	-0.2520236
171	0xbdfe33ef	-0.12412249
172	0x3da90d48	0.08254486
173	0xbd564ec9	-0.05232123
174	0x3c6d7910	0.014494196
175	0xbe926679	-0.28593805
176	0x3dde0e47	0.10842567
177	0x3e81520a	0.25257903
178	0x3d7ac56b	0.06122343
179	0x3f1ca92a	0.61195624
180	0x3e6a63d3	0.22889642
181	0x3efbaf5e	0.49157232
182	0x3f0faca3	0.561228
183	0x3ec8dbbe	0.3923015
184	0x3e6188dc	0.22024864
185	0x3d7a0870	0.061043203
186	0x3e9adde9	0.3024743
187	0x3e887cd8	0.26657748
188	0x3d638aa3	0.055552136
189	0x3ddbdf3b	0.10735937
190	0x3e7b66b6	0.245509
191	0x3f02e18d	0.51125413
192	0xbd571726	-0.05251231
193	0x3eecdedd	0.4626378
194	0xbde22cba	-0.11043687
195	0xbee195a1	-0.4405947
196	0xbf313a51	-0.6922961
197	0xbf3d796e	-0.7401341
198	0xbdeab216	-0.114597484
199	0x3e229420	0.15876818
200	0x3c83d816	0.016094249
201	0xbd6e1033	-0.058120918
202	0xbe12799b	-0.14304201
203	0xbe82084c	-0.25396955
204	0xbe8be849	-0.27325657
205	0xbe90216b	-0.28150496
206	0x3f7c7e7b	0.98630494
207	0x3af9085d	0.0018999685
208	0xbf4420e1	-0.7661267
209	0xbe59380b	-0.21212785
210	0x3d40b295	0.04704531
211	0x3ec8b1b6	0.39198083
212	0xbea0bb58	-0.31392932
213	0x3c0b7e33	0.008513975
214	0xbf0661fb	-0.52493256
215	0x3dcab80b	0.09898385
216	0x3f52bf75	0.8232339
217	0x3e5826be	0.21108529
218	0xbea514ca	-0.32242423
219	0xbec24fc3	-0.37951478
220	0xbc715854	-0.014730532
221	0x3e1aff9d	0.15136571
222	0xbdd20cc8	-0.10256344
223	0xbecd333c	-0.4007815
224	0x3d4e4cef	0.05036634
225	0xbee40a88	-0.44539285
226	0xbf63a0c5	-0.8891719
227	0xbf1c545e	-0.61066234
228	0xbec1dd5c	-0.37864196
229	0xbf7a6335	-0.9780763
230	0x3d9f915d	0.07791398
231	0x3eaccc54	0.3374964
232	0xbeaabfd5	-0.3334948
233	0xbeb00a41	-0.34382823
234	0x3eacb761	0.33733657
235	0x3ef2ec85	0.47446075
236	0xbf0224ca	-0.50837386
237	0xbd2707c2	-0.040778883
238	0xbfa22b8b	-1.2669538
239	0x3d2fb939	0.04290125
240	0x3e9c08c0	0.30475426
241	0x3d85da13	0.06535735
242	0x3d81824c	0.0632368
243	0x3df9ad14	0.12191215
244	0xbe87a396	-0.26491994
245	0x3db4b0ca	0.08822782
246	0xbd80d34c	-0.06290302
247	0x3f2c455e	0.67293346
248	0xbe37a8f5	-0.17935546
249	0x3e904eb1	0.28185037
250	0x3f5342e7	0.8252396
251	0x3ea52781	0.32256702
252	0x3d64f513	0.055897783
253	0xbea932c3	-0.3304654
254	0x3f1fc3f7	0.62408394
255	0xbdee705e	-0.11642526

block1.6.weight f4 [8]
0	0x3f7007d0	0.9376192
1	0x3f677410	0.9041147
2	0x3f882515	1.0636317
3	0x3f997505	1.1988837
4	0x3f76938a	0.96318877
5	0x3f8d1598	1.1022215
6	0x3f767d45	0.96284896
7	0x3f843764	1.0329404

block1.6.bias f4 [8]
0	0xbe982fbd	-0.2972392
1	0xbd83a399	-0.06427688
2	0x3f16087a	0.58606684
3	0xbc734045	-0.014846866
4	0xbf2e85ed	-0.68173105
5	0xbf4e040a	-0.80474913
6	0x3ebe524b	0.3717216
7	0xbf2a9b23	-0.6664297

block1.6.running_mean f4 [8]
0	0x3fc0370b	1.5016798
1	0x401f95bc	2.493514
2	0x4095cfbe	4.681609
3	0x40a12230	5.0354233
4	0x40381791	2.8764384
5	0x4061b0c3	3.5264137
6	0x403ed0a3	2.9814842
7	0x40035cc5	2.0525372

block1.6.running_var f4 [8]
0	0x40a55d9e	5.167678
1	0x40bf0735	5.96963
2	0x4151912d	13.097943
3	0x416b8eb6	14.722342
4	0x411b2532	9.696581
5	0x40e46994	7.137888
6	0x413ba5c3	11.727969
7	0x411682a0	9.406891

block1.8.weight f4 [8, 8, 3, 3]
0	0xbe3a4c2a	-0.18193117
1	0xbd454989	-0.04816583
2	0xbe9a863f	-0.30180547
3	0xbe6ea9b6	-0.23306927
4	0x3f717628	0.9432092
5	0xbe1cdbd5	-0.15318234
6	0xbe914612	-0.28373772
7	0x3e3808b2	0.17972067
8	0xbe10d91c	-0.1414532
9	0xbca74833	-0.02042017
10	0x3e2355c2	0.15950683
11	0x3dd1ff63	0.10253789
12	0x3e33c57b	0.17555802
13	0xbe3cdb9b	-0.18443148
14	0x3e8a450f	0.27005813
15	0xbdf5cdeb	-0.12002166
16	0x3d465940	0.04842496
17	0xbeef8c9b	-0.4678696
18	0x3e582c1f	0.21110581
19	0x3e2ba0df	0.16760586
20	0x3cf73d7c	0.030180685
21	0x3ee693e5	0.4503471
22	0xbf0d5a2c	-0.55215716
23	0xbe152f50	-0.1456883
24	0xbdce7983	-0.1008177
25	0x3e476bed	0.19474764
26	0x3b910868	0.004426051
27	0x3e75cede	0.24004695
28	0xbd8bd0e2	-0.068269506
29	0x3e1d961a	0.1538929
30	0x3ec3b7dc	0.3822621
31	0xbfdb0f1e	-1.7113988
32	0x3f0371cc	0.51345515
33	0x3e259f96	0.16174158
34	0x3d8852e3	0.066564344
35	0x3ddd3527	0.10801154
36	0xbd74df55	-0.0597833
37	0xbed4bb1e	-0.4154901
38	0x3d984cbe	0.074365124
39	0xbe5cd915	-0.21567185
40	0xbf656eb9	-0.89622074
41	0x3de0b545	0.109720744
42	0x3c85acf8	0.01631783
43	0xbbd44d74	-0.0064789597
44	0x3f2894f0	0.6585226
45	0x3c847c3a	0.016172517
46	0xbe09f47f	-0.13472174
47	0xbd368bc9	-0.044566903
48	0xbee94cf9	-0.45566538
49	0x3f5a13b3	0.8518631
50	0xbb8f5ef7	-0.0043753344
51	0x3d7b13db	0.061298233
52	0xbde760da	-0.1129777
53	0xbba916fb	-0.00516021
54	0xbd0bb7a6	-0.034110688
55	0xbea6d6d7	-0.32585785
56	0xbdd56200	-0.10419083
57	0x3e3786e6	0.17922553
58	0xbe06b881	-0.1315632
59	0x3ee86eca	0.45397025
60	0xbe6cd48e	-0.23127958
61	0xbe49cf55	-0.19707997
62	0x3f34f1aa	0.7068125
63	0xbd305ee5	-0.04305925
64	0xbd959c26	-0.073051736
65	0x3e2eb80b	0.17062394
66	0xbf191661	-0.5979977
67	0xbe9e3972	-0.30903202
68	0x3c82f678	0.015986666
69	0xbe7d477b	-0.24734299
70	0xbc5fabbe	-0.013651786
71	0x3ec58ca3	0.3858386
72	0x3ea00411	0.31253102
73	0xbdc0b245	-0.09409002
74	0x3df42aca	0.11922224
75	0x3ebb485b	0.3657864
76	0xbf8284c2	-1.0196764
77	0xbccf4b4e	-0.025304463
78	0x3e2f49b8	0.17117965
79	0xbdfce521	-0.1234839
80	0x3dc03291	0.09384645
81	0x3d9afad1	0.07567371
82	0x3e9df650	0.30851984
83	0x3e4ece3f	0.20195864
84	0xbd7e89d2	-0.062143154
85	0xbe9f19b3	-0.31074294
86	0x3d9657e9	0.07340986
87	0xbeed086f	-0.46295497
88	0x3e2cbcef	0.16868947
89	0x3e448be9	0.19193996
90	0x3d14b9a1	0.036309842
91	0x3e90cdf5	0.28282133
92	0xbd6f44e6	-0.058415316
93	0x3ed2a71b	0.41143116
94	0x3f98584f	1.190195
95	0x3df9ab2b	0.12190851
96	0xbec44118	-0.38330913
97	0xbe76c3eb	-0.24098174
98	0x3dd50690	0.10401642
99	0x3daa4df6	0.08315651
100	0x3e51ae5f	0.20476674
101	0x3dd16641	0.102245815
102	0x3e64232d	0.22279043
103	0xbf64e9ca	-0.89419234
104	0xbec49d06	-0.3840105
105	0x3e84fa1b	0.25972065
106	0x3ec82ac8	0.3909514
107	0x3d5eda2e	0.05440729
108	0xbd1d65fa	-0.03842733
109	0x3e6b05db	0.22951452
110	0xbdb487be	-0.08814953
111	0xbeaa77a5	-0.33294407
112	0xbf0d0ca4	-0.55097413
113	0xbec1ed6e	-0.37876457
114	0xbe1294e1	-0.14314605
115	0x3a87c990	0.0010359753
116	0xbdf45f12	-0.11932196
117	0xbdb20625	-0.08692578
118	0xbe10865c	-0.14113754
119	0xbd2020ca	-0.03909377
120	0xbddbcae5	-0.107320584
121	0xbfb3c8ee	-1.4045694
122	0xbe9ed9d1	-0.31025556
123	0xbd662fd7	-0.056197967
124	0x3dc304ea	0.09522422
125	0x3d346f18	0.04405126
126	0x3e3511c4	0.17682558
127	0x3ec1b5eb	0.37834105
128	0xbcd86495	-0.026415149
129	0xbc4fd49c	-0.012684967
130	0xbf6bbb89	-0.9208303
131	0x3ec85db0	0.39133978
132	0x3de617c7	0.11235004
133	0x3e8b7b23	0.27242383
134	0x3e4cc04a	0.19995227
135	0xbd0b287b	-0.033974152
136	0x3ca4733f	0.020074485
137	0xbeac8b3a	-0.3369997
138	0x3e0614c2	0.13093856
139	0x3e802715	0.25029817
140	0xbf67fe49	-0.90622383
141	0x3df5e0b9	0.12005753
142	0x3f1fb099	0.6237884
143	0xbea6e347	-0.32595274
144	0xbe6ce8c3	-0.23135667
145	0xbdd35ce8	-0.10320455
146	0x3e03c57f	0.12868308
147	0xbd866cc6	-0.06563716
148	0xbfab3cc4	-1.3377919
149	0x3e5fb55b	0.21846525
150	0x3ddfc91f	0.10927033
151	0x3e5236c2	0.20528701
152	0x3d987c3f	0.07445573
153	0x3d5e80f0	0.054322183
154	0xbe8765eb	-0.26444945
155	0xbeb1ca0b	-0.3472446
156	0xbb21706c	-0.002463366
157	0xbe408ca2	-0.18803647
158	0xbea5b5ee	-0.32365364
159	0x3e418b4c	0.18900794
160	0xbda50fc5	-0.080596484
161	0x3ed7d1ad	0.42152157
162	0xbe13b5f5	-0.1442488
163	0xbe6707a1	-0.22561504
164	0xbdaeca70	-0.08534706
165	0xbe8186c1	-0.25298122
166	0x3f64b0de	0.8933238
167	0x3d2b376b	0.041800898
168	0x3e1a75f7	0.15084063
169	0x3eaa275f	0.33233163
170	0x3ec49474	0.3839451
171	0xbea8e7e4	-0.32989419
172	0xbe3b24a4	-0.18275696
173	0xbe10a08f	-0.14123748
174	0xbe49e1b8	-0.19715011
175	0x3fbfeec4	1.499474
176	0xbf0e4382	-0.5557176
177	0x396d0358	0.00022603327
178	0x3dc02bff	0.093833916
179	0xbdc2a81f	-0.09504723
180	0x3e43726a	0.19086614
181	0x3e5d2e83	0.21599774
182	0xbdefeb0f	-0.11714756
183	0xbe18a0aa	-0.14905038
184	0x3d98d948	0.07463318
185	0xbed0f7f4	-0.40814173
186	0x3e893e5b	0.26805386
187	0xbed68f03	-0.41905984
188	0xbe6f93f3	-0.23396282
189	0x3e8237f9	0.2543333
190	0xbe198a34	-0.14994127
191	0x3d333756	0.043753944
192	0x3ee36d8d	0.44419518
193	0xbfbc60e8	-1.4717073
194	0xbf003272	-0.50076973
195	0xbc23a698	-0.0099884495
196	0x3e12bbf8	0.14329517
197	0x3d394a45	0.045236845
198	0xbdd4e7dd	-0.10395787
199	0xbef51d4f	-0.47873923
200	0xbf1f1cb4	-0.6215317
201	0x3e26e078	0.16296566
202	0xbdee7305	-0.11643032
203	0x3eda1f5b	0.42602047
204	0x3ddd05f9	0.10792155
205	0x3edb222a	0.42799503
206	0x3ea423e7	0.3205864
207	0x3d8e1a0c	0.06938562
208	0xbe143d81	-0.14476587
209	0x3e3bf278	0.18354213
210	0xbedc719b	-0.43055424
211	0xbf6f70ee	-0.9353169
212	0xbf0d861d	-0.55282766
213	0x3e8900bc	0.26758373
214	0x3e824685	0.25444427
215	0x3dabe14f	0.083925836
216	0xbdb4412d	-0.08801494
217	0xbd1750d1	-0.036942307
218	0xbcfb64b5	-0.03068767
219	0xbf056dff	-0.52120966
220	0xbf0eefe4	-0.55834794
221	0xbe4e6743	-0.20156579
222	0xbdf18898	-0.11793631
223	0xbe1398f4	-0.14413816
224	0x396ccd78	0.00022583257
225	0x3eb1f0f0	0.34754133
226	0xbe0c3d5f	-0.13695286
227	0xbe2f19b5	-0.1709965
228	0x3e7fdd7a	0.2498683
229	0xbf373b8d	-0.7157524
230	0xbf0f2e45	-0.55929977
231	0xbe352920	-0.17691469
232	0x3e8ee00d	0.27905312
233	0x3e3e3fbf	0.18579005
234	0x3a8972a4	0.0010486436
235	0xbdb6f931	-0.08934248
236	0xbc90aff7	-0.017662032
237	0x3e704088	0.23462117
238	0x3f503b36	0.8134035
239	0x3e82c280	0.25539017
240	0xbeb4f3f6	-0.35342377
241	0x3d7c8ddd	0.06165873
242	0xbdaa7d04	-0.08324626
243	0x3d67512d	0.0564739
244	0xbe049ecf	-0.12951206
245	0xbd564d79	-0.052319977
246	0x3f0ec3aa	0.5576731
247	0x3f460792	0.773553
248	0xbe3c7912	-0.1840556
249	0xbd82f9a8	-0.063952744
250	0x3f077a7c	0.5292127
251	0x3ea8258f	0.32841155
252	0xbd814d59	-0.06313581
253	0xbd6a6b86	-0.05723145
254	0xbcc2eb3f	-0.023793815
255	0x3e08dd8f	0.13365768

block1.10.weight f4 [8]
0	0x3f92fbee	1.1483133
1	0x3f9731cb	1.1812071
2	0x3fa488c5	1.2854239
3	0x3f925fc6	1.1435478
4	0x3f7de4b7	0.99177116
5	0x3f9153ee	1.1353738
6	0x3f6f7025	0.93530494
7	0x3f4824af	0.78180975

block1.10.bias f4 [8]
0	0xbee88908	-0.45417047
1	0x3d20dfb7	0.03927585
2	0x3d48680c	0.04892735
3	0xbe8c02ac	-0.27345788
4	0xbf07ae5b	-0.5300042
5	0x3e98a5ba	0.2981394
6	0x3e49354c	0.19649237
7	0xbd8ab8bb	-0.06773516

block1.10.running_mean f4 [8]
0	0x3ffb461c	1.9630771
1	0x408b2d48	4.3492775
2	0x407f7c7a	3.9919724
3	0x408eaa43	4.458284
4	0x40254fb5	2.58299
5	0x4094f6b9	4.6551175
6	0x4085eac0	4.184906
7	0x3f96d3aa	1.1783345

block1.10.running_var f4 [8]
0	0x40e53769	7.163014
1	0x40fb209c	7.8477306
2	0x412c6b34	10.776173
3	0x4145a51a	12.352808
4	0x409ddfa1	4.9335485
5	0x41397dce	11.593214
6	0x41010861	8.064546
7	0x40629047	3.540056

block2.0.weight f4 [16, 8, 3, 3]
0	0x3dbf9a4d	0.093556024
1	0xbe00fede	-0.12597224
2	0xbed8e608	-0.42363
3	0xbf0e43ad	-0.55572015
4	0xbe568986	-0.20950899
5	0x3e9975ea	0.29972774
6	0xbeb46f61	-0.35241225
7	0xbe9d90ac	-0.30774438
8	0x3f0328d2	0.5123416
9	0xbf0b3edd	-0.54392797
10	0xbd6e0b02	-0.058115967
11	0xbd123187	-0.035691764
12	0x3e89d9fc	0.2692412
13	0xbf2e25ae	-0.68026245
14	0x3e2b02b9	0.16700257
15	0x3e83eee9	0.2576821
16	0xbf21f561	-0.63265043
17	0x3e63c4f6	0.22243103
18	0xbda8dd51	-0.08245338
19	0x3be70026	0.0070495782
20	0x3dc26b56	0.09493129
21	0x3f07e745	0.53087264
22	0xbf147a22	-0.5799886
23	0xbe873c1c	-0.26413047
24	0x3eae80f1	0.3408275
25	0xbebab0d4	-0.36463034
26	0x3e4ccde0	0.2000041
27	0xbe5a157c	-0.21297258
28	0x3e3c984e	0.18417475
29	0xbe1f6f49	-0.15569796
30	0x3da93eec	0.082639545
31	0xbe4a835a	-0.19776669
32	0xbe4f5263	-0.20246272
33	0x3ed3c7c6	0.41363353
34	0xbd10cf0b	-0.0353537
35	0xbe3d89a3	-0.18509535
36	0xbcc7b508	-0.024378315
37	0xbe965a7c	-0.2936591
38	0x3e48900a	0.19586197
39	0x3e25142b	0.16120975
40	0xbe0d911c	-0.13824886
41	0xbe144d01	-0.144825
42	0xbc8395f7	-0.01606272
43	0x3c17ca7d	0.009264586
44	0xbe32f1bc	-0.17475027
45	0x3e08c9f9	0.13358296
46	0x3e2c8e86	0.16851243
47	0xbd9faa09	-0.077961035
48	0x3de45657	0.111492805
49	0x3e252c9c	0.16130298
50	0xbe15c9c8	-0.14627755
51	0x3ea610d7	0.32434723
52	0xbe2c417c	-0.16821855
53	0x3e51807f	0.20459174
54	0xbdcabf90	-0.09899819
55	0x3ecb8b72	0.39754826
56	0xbe5de07c	-0.21667665
57	0x3ec0a953	0.37629184
58	0x3d1d92f1	0.038470212
59	0x3e9db3cb	0.30801234
60	0x3d1460fc	0.036225304
61	0xbdc6ed92	-0.09713282
62	0x3da35c82	0.07976629
63	0xbe1b71d9	-0.15180148
64	0x3e9f03bb	0.31057534
65	0xbcd31d95	-0.025770942
66	0x3d1dc27e	0.03851556
67	0x3dcad79f	0.09904408
68	0x3f09f93c	0.53895926
69	0xbdf84008	-0.12121588
70	0xbe8b3cf1	-0.27194932
71	0x3b9933f2	0.004675382
72	0xbe945ca7	-0.28976938
73	0xbe94dd40	-0.2907505
74	0xbdac8c5e	-0.084252104
75	0xbebc35c0	-0.36759758
76	0xbf4f2361	-0.8091336
77	0xbe082f98	-0.13299406
78	0xbe63d34f	-0.22248577
79	0xbeb4cb30	-0.3531127
80	0x3e845207	0.25843832
81	0xbc5b4808	-0.013383873
82	0x3e5b818e	0.2143614
83	0xbc337c60	-0.010954946
84	0x3debec39	0.11519665
85	0xbf2963fc	-0.6616819
86	0x3e6b84a3	0.22999816
87	0xbe4afb87	-0.19822513
88	0xbea8cfbe	-0.32970995
89	0x3e8ad4d3	0.27115497
90	0x3ddf347d	0.10898683
91	0x3d97e184	0.074160606
92	0xbdcb30d5	-0.09921423
93	0x3ea4e038	0.32202315
94	0x3e2c39b1	0.16818883
95	0xbe8bbdee	-0.27293342
96	0x3e79cfdb	0.24395697
97	0xbd7669fc	-0.06015967
98	0xbe238a7b	-0.15970795
99	0xbd4da870	-0.050209463
100	0x3dee2d5d	0.11629746
101	0xbec71e49	-0.38890293
102	0x3b8952f4	0.004190797
103	0x3de9cf4b	0.11416491
104	0x3e23e27e	0.16004369
105	0xbd843656	-0.06455676
106	0x3e2e844a	0.17042652
107	0x3e582d24	0.2111097
108	0xbd48fae0	-0.049067378
109	0xbe473fa5	-0.19457872
110	0x3e998ee5	0.29991832
111	0xbcd2b14d	-0.02571931
112	0x3dbd03cf	0.09229242
113	0xbdd70165	-0.10498313
114	0xbe68a61c	-0.22719616
115	0xbe5b55bc	-0.21419424
116	0xbd064501	-0.03278065
117	0x3adbf2ca	0.0016780731
118	0xbe6b33bf	-0.22968958
119	0x3dd99d3e	0.10625695
120	0xbe4912e2	-0.1963611
121	0xbe9e9569	-0.30973366
122	0x3ef7294a	0.4827369
123	0xbdf3050e	-0.118661985
124	0xbe86dba3	-0.26339445
125	0x3f0ace9f	0.5422153
126	0xbe048a67	-0.12943421
127	0xbe2f03b1	-0.17091252
128	0xbe90cbb4	-0.28280413
129	0x3e7ccd5a	0.2468771
130	0xbe5ce5ad	-0.2157199
131	0x3e9d14e3	0.30679998
132	0x3e742089	0.23840536
133	0x3d88dad0	0.0668236
134	0xbcd10d8f	-0.02551916
135	0x3e8c8743	0.27446947
136	0x3c82f317	0.015985055
137	0xbc700110	-0.014648691
138	0x3d9a9d8a	0.075495794
139	0xbea0e903	-0.31427774
140	0x3e5fc714	0.21853286
141	0xbeebfce4	-0.46091378
142	0xbec80111	-0.39063314
143	0xbd5712e9	-0.05250827
144	0x373d8437	1.12960615e-05
145	0xbd82a920	-0.06379914
146	0x3e39c623	0.1814199
147	0xbee36965	-0.44416347
148	0xbe520d8c	-0.2051298
149	0x3dc0e033	0.094177626
150	0xbeddb07f	-0.43298718
151	0x3e558a98	0.2085365
152	0x3ae9951d	0.0017820928
153	0xbe87ed1b	-0.26548085
154	0x3d859cd8	0.06524056
155	0xbd39aca2	-0.04533065
156	0xbec15891	-0.37762883
157	0xbe5cd04e	-0.21563837
158	0xbe8263dc	-0.25466812
159	0xbd8dfe19	-0.06933231
160	0xbe2edb45	-0.17075832
161	0x3e2c2307	0.16810237
162	0xbe77061a	-0.24123421
163	0x3d8c7623	0.0685847
164	0x3e2be61f	0.16787003
165	0xbdadeb55	-0.08492152
166	0x3f379861	0.71716887
167	0x3d94049a	0.0722744
168	0x3e3b3a8d	0.18284054
169	0x3e4a5ce0	0.19761992
170	0xbbb23229	-0.0054381085
171	0xbea9128a	-0.33021957
172	0x3e498c25	0.19682367
173	0x3e3960f3	0.1810339
174	0x3d77e681	0.06052256
175	0x3efafe9b	0.49022374
176	0x3ed190ad	0.4093069
177	0x3ebeca06	0.37263507
178	0xbe0f3f72	-0.13989046
179	0xbda9d12d	-0.0829185
180	0x3d0e9de2	0.034818538
181	0x3c849778	0.016185507
182	0x3ebc63d3	0.3679491
183	0x3d27ad74	0.040936902
184	0x3e1bceb2	0.15215567
185	0x3c0e0b9e	0.008669762
186	0x3e9504df	0.2910528
187	0xbe9699f6	-0.29414338
188	0xbd979d6a	-0.07403071
189	0x3b011391	0.00196955
190	0xbe9849f9	-0.29743937
191	0xbe9a7a98	-0.30171657
192	0xbe248862	-0.16067651
193	0xbed5a9d9	-0.41731146
194	0xbe97528b	-0.29555163
195	0xbc014739	-0.007890516
196	0xbe00d741	-0.12582113
197	0x3d2ebc6b	0.042660158
198	0xbd24cb12	-0.040232725
199	0xbea5ba11	-0.3236852
200	0xbe76d427	-0.24104367
201	0x3e58b4bc	0.21162695
202	0xbdaea809	-0.08528144
203	0x3da52161	0.08063007
204	0xbe005377	-0.1253184
205	0xbdbe8bbe	-0.093039975
206	0x3d8a5713	0.06754889
207	0x3ee35688	0.44401956
208	0x3ebb1a4a	0.36543494
209	0xbe14a571	-0.14516236
210	0x3e8b9396	0.27261037
211	0xbdca3320	-0.098730326
212	0xbed7a5cc	-0.4211868
213	0xbe0425c5	-0.12905033
214	0xbe5df501	-0.21675493
215	0x3cc8a1e0	0.02449125
216	0xbddd614f	-0.10809576
217	0x3df84064	0.121216565
218	0x3e8af0ba	0.27136785
219	0xbe1c14c4	-0.15242296
220	0x3eb4cbe8	0.35311818
221	0x3e476c57	0.19474922
222	0x3d10677a	0.035254933
223	0x3ea2d374	0.3180195
224	0x3d2f9a38	0.042871684
225	0x3e9cc66f	0.30620143
226	0xbd560fd0	-0.052261174
227	0xbeb7d119	-0.35901716
228	0x3e8de3b1	0.27712777
229	0xbe9a022e	-0.30079788
230	0xbdad7573	-0.08469667
231	0x3d26b792	0.04070241
232	0x3ccfb4b3	0.025354719
233	0x3dc3fcc2	0.09569694
234	0xbe226d94	-0.15862113
235	0x3d8acaa9	0.067769356
236	0xbe0a0f85	-0.13482483
237	0x3d9cc3cf	0.07654535
238	0xbe6be7ac	-0.23037595
239	0x3e9e8ac1	0.30965236
240	0x3e9e96f6	0.3097455
241	0x3edb9b53	0.4289194
242	0x3ebd0f81	0.3692589
243	0x3e00d246	0.12580213
244	0x3d9cc1d3	0.076541565
245	0x3e48ad2d	0.19597311
246	0xbe9b1757	-0.30291244
247	0xbeffcb19	-0.4995964
248	0x3d86f57e	0.06589793
249	0x3d8fa252	0.07013382
250	0xbce25397	-0.02762775
251	0x3ed75146	0.42054194
252	0xbc110a8f	-0.008852615
253	0xbe81da40	-0.25361824
254	0xbe0aa6b0	-0.13540149
255	0xbd94e676	-0.072705194

block2.2.weight f4 [16]
0	0x3f86adf2	1.0521834
1	0x3f84f621	1.0387613
2	0x3f3dcb67	0.7413849
3	0x3f3a3d2a	0.7274958
4	0x3f20c18b	0.62795323
5	0x3f5c9bc8	0.86175203
6	0x3f9136f8	1.13449
7	0x3f7773cc	0.96661067
8	0x3f4fc93e	0.81166446
9	0x3f4421c6	0.76614034
10	0x3f64b64b	0.89340657
11	0x3f26c042	0.6513711
12	0x3f5cea0e	0.8629464
13	0x3f6706db	0.90244836
14	0x3f4cda0d	0.8002022
15	0x3f905ff5	1.1279284

block2.2.bias f4 [16]
0	0x3dfcaba4	0.12337425
1	0x3ddf20e2	0.10894944
2	0x3d080a2d	0.03321283
3	0x3d42a4d6	0.04752048
4	0x3eb4207f	0.35181043
5	0x3f09d7b9	0.5384479
6	0x3ebf17e7	0.37322924
7	0x3e78a6b5	0.24282344
8	0x3e930e2a	0.28721744
9	0x3cd6fdd0	0.026244074
10	0x3eb20755	0.3477122
11	0x3e598d5b	0.21245329
12	0x3eec5c94	0.46164382
13	0x3ea11133	0.31458434
14	0x3ebdf328	0.37099576
15	0x3e61296b	0.21988456

block2.2.running_mean f4 [16]
0	0x3ff90a44	1.9456258
1	0x3ffe1334	1.984961
2	0x3f2a9fd8	0.6665015
3	0x3f95dab4	1.1707368
4	0x3f994f29	1.1977283
5	0x3f58f562	0.84749424
6	0x40016fb6	2.0224433
7	0x3fbd4288	1.4785929
8	0x3fbc9eec	1.4735999
9	0x3fad0545	1.3517233
10	0x3f9af7a3	1.2106823
11	0x3f22f46f	0.63654226
12	0x3f9dd469	1.2330447
13	0x3fc0e37a	1.506942
14	0x3ffed32b	1.9908193
15	0x4007d3db	2.1223056

block2.2.running_var f4 [16]
0	0x40a638eb	5.194448
1	0x40879244	4.2366047
2	0x40033f25	2.050729
3	0x4059a625	3.4007657
4	0x404d8a33	3.21156
5	0x401de637	2.4671762
6	0x4081261d	4.0359025
7	0x408943bb	4.289518
8	0x40536d3f	3.3035429
9	0x4080de21	4.0271153
10	0x409dc754	4.930582
11	0x400c20ea	2.189509
12	0x40954cc4	4.665621
13	0x40a9a4e6	5.301379
14	0x40856f87	4.169864
15	0x409dfa77	4.9368243

block2.4.weight f4 [16, 16, 3, 3]
0	0xbcddb905	-0.027065763
1	0xbdea5bae	-0.11443268
2	0xbdd9d7e3	-0.1063688
3	0x3d195fd1	0.037444893
4	0xbba1a006	-0.0049324064
5	0xbe4ed8b6	-0.20199856
6	0x3da08596	0.078379795
7	0x3dd89d37	0.10576861
8	0xbe1a00ad	-0.1503932
9	0x3cb01600	0.021494865
10	0xbd8aa2c8	-0.06769329
11	0xbdc77a9e	-0.09740184
12	0xbb06d540	-0.0020573884
13	0xbd0a808a	-0.03381399
14	0xbc9cae42	-0.019126061
15	0xbe2948b0	-0.16531634
16	0xbdab3b3a	-0.08360906
17	0x3d94a045	0.072571315
18	0xbd27a2c8	-0.040926725
19	0xbe3619f8	-0.17783344
20	0xbe80d8d3	-0.25165424
21	0x3d229ff9	0.039703343
22	0xbe044d72	-0.12920168
23	0xbe06bb78	-0.13157451
24	0x3d830450	0.06397307
25	0x3d3fd5c1	0.04683471
26	0xbcf5fd04	-0.030027874
27	0xbe938a98	-0.28816676
28	0xbe91f391	-0.2850614
29	0xbe4940c7	-0.19653617
30	0xbe26a123	-0.16272406
31	0xbe239587	-0.15975009
32	0xbe12c31a	-0.14332238
33	0x3cfe2a57	0.031026049
34	0x3d6ffa56	0.05858835
35	0x3d80809e	0.06274532
36	0xbd12d577	-0.035848107
37	0x3dde43aa	0.1085275
38	0x3d96b34e	0.073584184
39	0x3e6901d9	0.22754611
40	0x3ecca121	0.39966682
41	0x3eace8e2	0.33771425
42	0x3da8d22e	0.082432136
43	0x3e804c88	0.2505839
44	0x3e7844b6	0.24244961
45	0x3dd345fb	0.10316082
46	0xbd81e1f9	-0.06341929
47	0xbead2a4d	-0.33821335
48	0x3e559ce2	0.20860627
49	0x3e76fa4a	0.24118915
50	0xbe05d265	-0.1306854
51	0x3c8832d8	0.016625807
52	0x3de54914	0.11195579
53	0xbd8790c9	-0.066194125
54	0x3aa4e39c	0.001258004
55	0x3e187fc1	0.14892484
56	0x3e34b0ad	0.17645521
57	0xbe4bbf5d	-0.19897218
58	0x3cdfd11d	0.027321393
59	0x3b123dea	0.0022314736
60	0xbe510e82	-0.2041569
61	0xbd12cf34	-0.035842136
62	0xbbd51380	-0.0065025687
63	0x3d0a4add	0.0337628
64	0x3e860a2d	0.26179639
65	0x3e3d6dee	0.18498966
66	0x3eafb975	0.3432118
67	0x3ef80eab	0.4844869
68	0x3de3152f	0.11088025
69	0x3dd0890a	0.10182388
70	0x3e716120	0.23572206
71	0xbcc20572	-0.023684237
72	0xbe8e2ed4	-0.27770102
73	0xbe30345b	-0.17207472
74	0xbe6b0e6a	-0.22954717
75	0x3e217f0e	0.15771124
76	0x3ebf3186	0.3734247
77	0x3eb162c8	0.34645677
78	0x3ddfd455	0.10929171
79	0x3ea1a220	0.31569004
80	0x3ecafc31	0.39645532
81	0xbe20a3f4	-0.15687543
82	0xbde8a419	-0.11359424
83	0x3cbd5498	0.023111627
84	0xbe821262	-0.2540465
85	0xbdc1e838	-0.0946812
86	0xbc84c8ef	-0.016209094
87	0xbe8c76a0	-0.27434254
88	0xbcef9903	-0.029247766
89	0xbe0e5ecd	-0.13903351
90	0x3e0bb591	0.13643481
91	0x3e3c13fa	0.18366995
92	0x3e08c13c	0.13354963
93	0x3e89c000	0.26904297
94	0x3eb66feb	0.35632262
95	0x3d000e43	0.0312636
96	0x3d984a11	0.07436002
97	0x3e4ac8ea	0.19803205
98	0xbe24bcb2	-0.16087607
99	0xbe2e5fd6	-0.17028746
100	0x3dd0e192	0.10199274
101	0x3e2c648b	0.16835229
102	0x3e23f900	0.16012955
103	0x3ee15985	0.4401361
104	0x3f07db05	0.5306857
105	0x3daa2538	0.0830788
106	0x3e73deb9	0.2381543
107	0x3ed37906	0.4130327
108	0x3df122bb	0.117742024
109	0x3e5de235	0.21668322
110	0x3e340aa7	0.17582189
111	0x3ed9b78a	0.42522842
112	0x3efd671b	0.49492726
113	0x3eaa5f43	0.33275804
114	0x3deb8d39	0.115015455
115	0x3e421890	0.18954682
116	0x3bf11164	0.0073568095
117	0x3c4c886b	0.012483696
118	0xbdf4a074	-0.119446665
119	0xbe01a3af	-0.12660097
120	0x3e3da38b	0.18519418
121	0x3d10cb4b	0.035350125
122	0x3cafa812	0.021442447
123	0x3e24a633	0.16079025
124	0xbccd900c	-0.025093101
125	0x3980f08f	0.00024593293
126	0x3ded4031	0.11584509
127	0x3e77a89b	0.24185412
128	0x3dbc5c31	0.091972716
129	0x3ec563de	0.38552755
130	0x3f0b1740	0.5433235
131	0x3ec1fd85	0.37888733
132	0xbcaa7ba2	-0.020810906
133	0x3da03a12	0.07823576
134	0xbd662721	-0.05618966
135	0xbd82da51	-0.06389297
136	0x3dc092a9	0.09402973
137	0x3e3c2cc8	0.18376458
138	0xbeb17b17	-0.34664223
139	0xbe3dd9ed	-0.18540163
140	0xbde622a8	-0.11237079
141	0xbe830b97	-0.2559478
142	0xbe1ce61c	-0.15322155
143	0xbe4eab25	-0.20182474
144	0xbec9b452	-0.39395386
145	0x3ea3edc5	0.3201734
146	0xbe1d74b5	-0.15376551
147	0xbeba6ac5	-0.36409584
148	0x3ec3d3d7	0.38247558
149	0x3e551df9	0.20812215
150	0x3e6ba829	0.23013367
151	0xbe66e487	-0.22548114
152	0xbd97205f	-0.07379221
153	0xbd8ba80d	-0.068191625
154	0x3eb9093f	0.36139867
155	0xbd9fc31c	-0.07800886
156	0xbe04e7d8	-0.12979066
157	0x3e939a81	0.28828815
158	0x3e0ad2ac	0.13556927
159	0x3ca59e23	0.020217007
160	0xbe92c33d	-0.2866458
161	0x3e97e755	0.2966868
162	0xbd94e14a	-0.07269533
163	0xbdb8e0ab	-0.09027227
164	0xbdd14caa	-0.10219701
165	0x3e095bcc	0.13413924
166	0xbe572058	-0.21008432
167	0x3d94764b	0.07249125
168	0xbc7e024c	-0.015503477
169	0x3dcc512b	0.09976419
170	0x3dfea967	0.12434655
171	0xbe537192	-0.20648792
172	0x3dfefb12	0.124502316
173	0x3d0e455d	0.03473412
174	0xbecd8b71	-0.40145448
175	0xbe4d8c3e	-0.2007303
176	0x3e37b975	0.1794184
177	0xbecd611c	-0.4011315
178	0xbea4b2b1	-0.3216758
179	0x3d83af72	0.06429948
180	0x3db58e0b	0.08864983
181	0xbda046a6	-0.07825975
182	0xbd48afa6	-0.048995636
183	0xbe7da889	-0.24771322
184	0x3d913ee9	0.07092077
185	0xbd12852b	-0.03577153
186	0xbe479e93	-0.19494085
187	0xbd8d6f79	-0.06906027
188	0xbcfa5722	-0.030559126
189	0x3dfdaafb	0.123861276
190	0xbdfdcd07	-0.123926215
191	0xbddb4bcd	-0.10707817
192	0x3ead8e95	0.33897844
193	0x3d25ac81	0.040447716
194	0xbedfe962	-0.43732744
195	0x3db0971d	0.086225726
196	0x3eebec75	0.4607884
197	0xbe87a103	-0.2649003
198	0xbe140133	-0.14453582
199	0xbf1f15d5	-0.6214269
200	0x3dab0473	0.08350458
201	0x3f1b479b	0.60656136
202	0xbeab8ff2	-0.3350826
203	0xbeb05012	-0.3443609
204	0x3e0da9d8	0.13834321
205	0x3f117fc7	0.568356
206	0xbea7c2bb	-0.32765755
207	0xbe97d976	-0.29658097
208	0x3d98ae05	0.074550666
209	0x3e4193e5	0.18904074
210	0xbe1b1918	-0.15146291
211	0xbcfa9337	-0.030587776
212	0x3db7e339	0.08978886
213	0x3da5dbbd	0.080985524
214	0xbeda56d7	-0.4264438
215	0xbd67d285	-0.05659725
216	0x3cef29c3	0.029194718
217	0x3ee755bc	0.45182598
218	0xbde2e49b	-0.11078759
219	0xbf10fa30	-0.56631756
220	0x3e2d1c20	0.1690526
221	0x3e7eeb44	0.24894434
222	0x3b8f4e6f	0.0043733637
223	0xbe84a38b	-0.25906023
224	0x3e9bec2a	0.30453616
225	0x3eb90aea	0.3614114
226	0xbe5d5734	-0.21615297
227	0xbe9022bf	-0.2815151
228	0x3ea5f14d	0.3241066
229	0x3cdbcf75	0.026832322
230	0xbe2c8e36	-0.16851124
231	0x3e0fcc6d	0.14042826
232	0x3dddfc82	0.10839178
233	0xbe0ea53a	-0.13930216
234	0x3cb892d3	0.022530949
235	0xbe486e3b	-0.195733
236	0xbdbcab11	-0.09212316
237	0x3d29e46d	0.04147761
238	0xbd9b63f2	-0.075874224
239	0x3e4956c8	0.1966201
240	0x3e80e329	0.2517331
241	0x3e2ee7d4	0.17080623
242	0x3d585b57	0.052821483
243	0x3af91251	0.0019002651
244	0x3d2c3744	0.042044893
245	0xbe04e4bf	-0.12977885
246	0xbd9baaa9	-0.0760091
247	0x3c462d76	0.0120958
248	0xbd1ffa23	-0.03905691
249	0xbcb94d29	-0.0226198
250	0x3d79be8b	0.06097273
251	0x3e1f069c	0.15529865
252	0xbe9de56d	-0.308391
253	0xbe413182	-0.18866542
254	0x3e0089d3	0.12552576
255	0xbd9616c0	-0.07328558

block2.6.weight f4 [16]
0	0x3f60767b	0.87680787
1	0x3f906bc5	1.1282889
2	0x3f54d11f	0.83131593
3	0x3f8e755a	1.1129563
4	0x3f4a4f3f	0.7902717
5	0x3f52dcf2	0.82368386
6	0x3f5c94e2	0.8616468
7	0x3f911631	1.1334897
8	0x3f712b8f	0.9420709
9	0x3f77f698	0.9686065
10	0x3f6312a4	0.8870032
11	0x3f3c3716	0.73521554
12	0x3f2d41a7	0.676783
13	0x3f8c46e6	1.0959136
14	0x3f89ad16	1.0755947
15	0x3f593eb4	0.848613

block2.6.bias f4 [16]
0	0x3ed95074	0.42444193
1	0x3e598bce	0.21244738
2	0xbe9ac12c	-0.30225503
3	0x3e1fbfad	0.15600462
4	0xbebe417c	-0.37159336
5	0x3ea2eb8e	0.3182034
6	0xbede0168	-0.43360448
7	0x3dcb41ae	0.09924637
8	0x3f61d27f	0.88211817
9	0xbe833666	-0.2562744
10	0xbde542d6	-0.111943886
11	0x3df49b30	0.11943662
12	0xbf2e3ec6	-0.68064535
13	0x3ed88ff9	0.42297342
14	0x3e6563ef	0.22401403
15	0x3eb5abbd	0.35482588

block2.6.running_mean f4 [16]
0	0x4065eec4	3.592698
1	0x3faee5c2	1.3663867
2	0x3f9ac90f	1.2092608
3	0x3fdb6758	1.7140913
4	0x3fab99db	1.3406328
5	0x3f6230e9	0.8835588
6	0x3f9b9aea	1.2156651
7	0x3f903af6	1.1267993
8	0x3f75af53	0.9597065
9	0x3f87c8fc	1.060821
10	0x3ed235de	0.41056722
11	0x3f8910ad	1.0708214
12	0x3fd79544	1.6842427
13	0x3fa6ade4	1.3021817
14	0x3fab595c	1.3386645
15	0x3f5eb58b	0.8699576

block2.6.running_var f4 [16]
0	0x412efa9d	10.936185
1	0x40da9cc3	6.831636
2	0x40637d13	3.554509
3	0x41339efe	11.226316
4	0x407d328d	3.9562104
5	0x405117ed	3.2670853
6	0x40746b3d	3.8190453
7	0x40c573d8	6.170391
8	0x40921e6c	4.5662136
9	0x408366d2	4.1063013
10	0x3f6fee85	0.93723327
11	0x402f7c79	2.7419722
12	0x405afc96	3.4216666
13	0x40d42a24	6.630144
14	0x40de2432	6.9419184
15	0x40497a88	3.1481037

block2.8.weight f4 [16, 16, 3, 3]
0	0xbddcd58a	-0.10782917
1	0xbdf404e4	-0.11914995
2	0x3d55a84c	0.052162454
3	0xbe05df0e	-0.1307337
4	0xbe9e6146	-0.3093359
5	0xbe2102ea	-0.15723768
6	0xbd07be60	-0.03314054
7	0xbeb76b25	-0.35823932
8	0xbeb25090	-0.3482709
9	0x3cc0326b	0.023461541
10	0xbd385f8c	-0.045012996
11	0x3bb959c3	0.0056564524
12	0x3e3de86f	0.18545698
13	0x3e2462e2	0.16053346
14	0xbc4b0604	-0.012391571
15	0x3e64364a	0.22286335
16	0x3e24fb14	0.16111404
17	0xbd7d8d13	-0.061902117
18	0xbbfe6ffd	-0.007764815
19	0x3e1768ea	0.14786115
20	0x3e311843	0.17294411
21	0xbdf5bb7e	-0.11998652
22	0x3da5e5fe	0.08100508
23	0x3dabf9f6	0.08397286
24	0xbe276f35	-0.16351016
25	0xbe2e52af	-0.17023729
26	0xbe1e39ef	-0.15451787
27	0x3dab0bf6	0.08351891
28	0x3e35b661	0.17745353
29	0x3e49c41c	0.19703716
30	0xbd746ea9	-0.059675846
31	0x3d151ac7	0.03640249
32	0x3dea42f8	0.114385545
33	0xbe53037b	-0.20606796
34	0xbe4045dc	-0.18776649
35	0x3ccfc192	0.025360856
36	0x3d03cc81	0.032177452
37	0xbdfb32c3	-0.122655414
38	0xbcbba5e0	-0.022906244
39	0xbd8ec7d5	-0.06971709
40	0xbe7e166c	-0.24813241
41	0xbe8d0e62	-0.27550036
42	0x3dc5adb6	0.09652273
43	0xbe0b0818	-0.13577306
44	0xbe834afc	-0.25643146
45	0x3db2e4d6	0.08735053
46	0x3daa943a	0.08329053
47	0x3df1fcf2	0.118158236
48	0xbe06032e	-0.1308715
49	0xbe046fb0	-0.1293323
50	0xbd930b51	-0.07179893
51	0xbe24ccd8	-0.16093767
52	0xbe8a98eb	-0.27069792
53	0xbe37bc70	-0.17942977
54	0x3d88f4db	0.066873275
55	0x3e7e05a8	0.24806845
56	0x3e429e04	0.1900559
57	0x3e016ed7	0.12639938
58	0x3e615f2a	0.22008958
59	0x3e0025a7	0.12514363
60	0x3c2f2770	0.010690555
61	0xbd131d49	-0.0359166
62	0xbd0776db	-0.033072334
63	0x3cd59a68	0.026074603
64	0x3badbe53	0.0053022294
65	0xbdaa0c63	-0.08303144
66	0x3e2302ea	0.1591908
67	0x3df649fd	0.12025831
68	0xbdeb61db	-0.11493274
69	0x3e5b7800	0.21432495
70	0x3e219e59	0.15783061
71	0xbcd58bff	-0.026067732
72	0xbd238af0	-0.039927423
73	0xbd40c2e6	-0.04706087
74	0xbb06b94e	-0.0020557228
75	0xbbae33b6	-0.005316223
76	0x3dce108e	0.10061751
77	0x3e0a3c5a	0.13499585
78	0xbe24e1fe	-0.16101834
79	0x3d8cc93e	0.068743214
80	0x3e6bb1fe	0.23017117
81	0x3e41efb4	0.18939096
82	0xbd98c9fb	-0.074604
83	0xbdd6a191	-0.10480035
84	0x3e2c3da6	0.16820392
85	0xbe0aa530	-0.13539577
86	0xbe10d75c	-0.14144653
87	0x3c9dd1da	0.019265104
88	0xbd90eeb6	-0.070767805
89	0xbd00e08f	-0.031464156
90	0x3cda4e9e	0.026648816
91	0xbd2c3eac	-0.042051956
92	0xbd7d3e38	-0.061826915
93	0x3e1279a3	0.14304213
94	0xbd70ce21	-0.05879033
95	0xbe680dfe	-0.22661588
96	0x3e2a6d9f	0.1664338
97	0x3d4ca09a	0.04995785
98	0xbe90b693	-0.28264293
99	0x3de574fc	0.112039536
100	0x3ef97a6b	0.4872621
101	0x3eec9862	0.4621001
102	0x3dfe6808	0.12422186
103	0x3f2a34c3	0.6648676
104	0x3f2008e2	0.62513554
105	0x3df74b6d	0.12074933
106	0x3eebc92e	0.46051925
107	0x3edb0f3e	0.42785066
108	0x3d4e4c5b	0.050365787
109	0xbda628e8	-0.08113271
110	0xbb9ab947	-0.004721794
111	0xbe550480	-0.20802498
112	0xbed7bf19	-0.42137983
113	0xbead6802	-0.33868414
114	0xbe1a41d7	-0.15064178
115	0xbeb8fed4	-0.36131918
116	0xbed292f5	-0.41127744
117	0x3e436854	0.19082767
118	0x3e1152d2	0.1419175
119	0xbc3bf02d	-0.011470837
120	0x3d1647de	0.03668963
121	0x3e271837	0.16317831
122	0x3d2d0bac	0.04224746
123	0xbc162611	-0.009164349
124	0x3d957741	0.072981365
125	0x3e33f381	0.17573358
126	0x3d92bbad	0.071647026
127	0x3d876008	0.066101134
128	0xbe324f3a	-0.17413035
129	0x3d9d794a	0.0768915
130	0x3cd8d8bb	0.026470533
131	0xbe39d5de	-0.1814799
132	0x3c71843f	0.014741003
133	0xbda1c3ed	-0.07898698
134	0xbd84d7a2	-0.06486441
135	0x3e2ebe0f	0.17064689
136	0x3ee54e2a	0.44786197
137	0x3ea3f896	0.32025594
138	0xbd8f1af7	-0.06987565
139	0x3e8bab6c	0.27279222
140	0x3e441c3f	0.191514
141	0xbe552441	-0.20814611
142	0xbe0f4921	-0.1399274
143	0xbe3df150	-0.18549085
144	0xbdc3d267	-0.095616154
145	0xbdf3962e	-0.11893879
146	0xbe4c96f4	-0.19979459
147	0xbcfef151	-0.031120928
148	0xbcb2f0f9	-0.02184342
149	0xbe39b83f	-0.1813669
150	0x3da71a8c	0.0815936
151	0x3d5aa643	0.053381216
152	0xbd1ec717	-0.038764086
153	0xbd765448	-0.06013897
154	0xbdb4f631	-0.0883602
155	0x3d8b5a86	0.06804375
156	0x3d9f3de7	0.07775479
157	0xbdbef99e	-0.093249545
158	0xbd216de1	-0.03941143
159	0x3e581377	0.21101175
160	0x3db6e3ea	0.0893019
161	0xbd35ac7d	-0.04435395
162	0xbe0cd900	-0.13754654
163	0xbdb1719f	-0.0866425
164	0x3ba6a9bd	0.0050861523
165	0xbdc84095	-0.09777943
166	0xbe9de61f	-0.3083963
167	0xbead3cd2	-0.33835465
168	0x3d3d03a6	0.046146058
169	0xbe5da785	-0.21645935
170	0xbe919523	-0.28434095
171	0x3e01d54d	0.12679024
172	0xbd7c3408	-0.06157306
173	0xbd8516e3	-0.06498506
174	0x3d193308	0.037402183
175	0x3d945704	0.072431594
176	0xbc453397	-0.012036226
177	0x3dc5ddf1	0.096614726
178	0x3e4a4d8e	0.19756147
179	0x3df998f2	0.12187375
180	0x3dff59d1	0.12468303
181	0xbd73ccd4	-0.05952151
182	0xbe31d5cd	-0.17366715
183	0xbdd64a58	-0.10463399
184	0xbec3bef5	-0.38231626
185	0xbec70cef	-0.38877055
186	0x3df7af3a	0.12093969
187	0xbe5c1523	-0.21492438
188	0xbe23a812	-0.15982082
189	0x3da1deed	0.07903848
190	0x3e80c8f0	0.25153303
191	0x3de84f4a	0.11343248
192	0x3dd1dd47	0.102472834
193	0x3e127327	0.1430174
194	0x3e268355	0.16261037
195	0x3e229caf	0.15880083
196	0x3e1ed126	0.15509471
197	0x3dc8a869	0.09797747
198	0x3d9e283b	0.07722517
199	0xbeb84034	-0.35986483
200	0xbe43e17c	-0.19128984
201	0xbe863091	-0.26208928
202	0xbf2e0dec	-0.67989993
203	0xbf1defba	-0.6169392
204	0xbdbfea25	-0.093708314
205	0xbefc75fd	-0.49308768
206	0xbecd1cad	-0.4006094
207	0xbda908e7	-0.08253651
208	0xbb6b97a3	-0.0035948537
209	0x3d9ebd15	0.07750908
210	0xbe32cb01	-0.17460252
211	0xbe64703f	-0.22308443
212	0x3d2b8ebc	0.04188417
213	0xbcad09fb	-0.021122923
214	0xbe8b5373	-0.27212104
215	0xbdc0cb05	-0.09413723
216	0xbd13a897	-0.03604945
217	0x3d6955a7	0.05696645
218	0x3a600273	0.0008545287
219	0x3e18f944	0.14938837
220	0x3d851449	0.0649801
221	0xbacffd88	-0.0015868405
222	0x3c920ef4	0.017829396
223	0xbcd20f5e	-0.025642093
224	0xbd9f6b3d	-0.07784126
225	0x3cea66db	0.028613498
226	0xbe11b89b	-0.14230578
227	0x3d56379e	0.052299134
228	0xbdad466b	-0.08460697
229	0xbdea7927	-0.11448889
230	0x3e38197a	0.17978469
231	0xbe0823af	-0.13294862
232	0x3c4f4348	0.012650318
233	0x3e2d3c12	0.16917446
234	0xbdecb6da	-0.11558314
235	0x3cc41d9e	0.023939904
236	0xbd7f4988	-0.062325984
237	0xbd22fa18	-0.03978929
238	0x3e0544b7	0.13014494
239	0x3d447914	0.04796703
240	0x3e228ab5	0.15873225
241	0x3e01a74d	0.12661476
242	0x3bd4e65d	0.006497188
243	0xbdb4e50a	-0.08832748
244	0xbe7aa274	-0.24476033
245	0xbe5af4b1	-0.21382405
246	0x3d54ed3e	0.051984064
247	0xbd8119c3	-0.06303742
248	0xbd9ca295	-0.076481976
249	0x3e77004a	0.24121204
250	0x3e2a5839	0.16635217
251	0x3e27b03c	0.16375822
252	0x3d9b8997	0.075946026
253	0x3e930aba	0.2871912
254	0x3da09ff3	0.07843008
255	0x3e817fad	0.2529272

block2.10.weight f4 [16]
0	0x3f763d52	0.9618732
1	0x3f6ee880	0.93323517
2	0x3f89b60e	1.0758684
3	0x3f8a0539	1.0782844
4	0x3f4cf90f	0.80067533
5	0x3f7e53bf	0.99346536
6	0x3f574bbd	0.8409994
7	0x3f6653e5	0.8997176
8	0x3f89c139	1.0762092
9	0x3f73337e	0.95000446
10	0x3f7acf90	0.97972965
11	0x3f98fc51	1.1952001
12	0x3f839acb	1.0281614
13	0x3f893063	1.0717891
14	0x3f8a1032	1.0786192
15	0x3f6d713d	0.9275091

block2.10.bias f4 [16]
0	0xbe71962f	-0.23592447
1	0x3ccd923e	0.025094148
2	0x3e8b0535	0.2715241
3	0x3dbb1598	0.09134978
4	0x3eb62205	0.3557283
5	0xbe4a0877	-0.19729792
6	0xbef46a6b	-0.4773744
7	0x3e963ccb	0.29343256
8	0x3cdbfa56	0.026852768
9	0xbe11bf4a	-0.14233127
10	0x3e45edf7	0.19329058
11	0x3ce55952	0.027996693
12	0x3f0b5cc9	0.54438454
13	0x3e027d58	0.12743127
14	0x3d5dc103	0.05413915
15	0xbf0561fb	-0.5210263

block2.10.running_mean f4 [16]
0	0x40206946	2.5064254
1	0x3fd47e0c	1.6600966
2	0x4068b113	3.6358078
3	0x4065d3c5	3.5910504
4	0x4052ac94	3.2917833
5	0x3fe54a64	1.7913327
6	0x402cfd25	2.7029507
7	0x3fedd129	1.8579456
8	0x40839567	4.1119876
9	0x402342a2	2.550942
10	0x404b75c5	3.179063
11	0x408714aa	4.2212725
12	0x3fc93613	1.5719627
13	0x40634f86	3.5517287
14	0x400242ce	2.0353274
15	0x408abf96	4.335887

block2.10.running_var f4 [16]
0	0x40ed0c1c	7.407728
1	0x4067aefa	3.6200547
2	0x416d13a5	14.817296
3	0x41726282	15.14905
4	0x40b1d06e	5.556693
5	0x40ff3f6c	7.976492
6	0x40f62a36	7.6926527
7	0x408ba04d	4.363318
8	0x417006ec	15.00169
9	0x40f7c70a	7.7430468
10	0x4106a0f7	8.414298
11	0x418ba932	17.457615
12	0x40d01954	6.503092
13	0x414085a6	12.032629
14	0x413e30ce	11.886915
15	0x411e6e97	9.901999
